…
Let's now create a model with an _L2 rate_ that equals 0.005. 


```{r eval = F}
model_L2 = build_model(L2_rate = 0.005)
history_L2_reg = compile_and_train(model_L2, 1e-3, 20, F)
```

```{r}
## Model: "convnet_L2_0.005_dropout_0"
## ______________________________________________________________________________________________________________
## Layer (type)                                     Output Shape                                Param #          
## ==============================================================================================================
## conv2d (Conv2D)                                  (None, 148, 148, 32)                        896              
## ______________________________________________________________________________________________________________
## max_pooling2d (MaxPooling2D)                     (None, 74, 74, 32)                          0                
## ______________________________________________________________________________________________________________
## conv2d_1 (Conv2D)                                (None, 72, 72, 64)                          18496            
## ______________________________________________________________________________________________________________
## max_pooling2d_1 (MaxPooling2D)                   (None, 36, 36, 64)                          0                
## ______________________________________________________________________________________________________________
## conv2d_2 (Conv2D)                                (None, 34, 34, 128)                         73856            
## ______________________________________________________________________________________________________________
## max_pooling2d_2 (MaxPooling2D)                   (None, 17, 17, 128)                         0                
## ______________________________________________________________________________________________________________
## dropout (Dropout)                                (None, 17, 17, 128)                         0                
## ______________________________________________________________________________________________________________
## conv2d_3 (Conv2D)                                (None, 15, 15, 128)                         147584           
## ______________________________________________________________________________________________________________
## max_pooling2d_3 (MaxPooling2D)                   (None, 7, 7, 128)                           0                
## ______________________________________________________________________________________________________________
## flatten (Flatten)                                (None, 6272)                                0                
## ______________________________________________________________________________________________________________
## dropout_1 (Dropout)                              (None, 6272)                                0                
## ______________________________________________________________________________________________________________
## dense (Dense)                                    (None, 512)                                 3211776          
## ______________________________________________________________________________________________________________
## dropout_2 (Dropout)                              (None, 512)                                 0                
## ______________________________________________________________________________________________________________
## dense_1 (Dense)                                  (None, 1)                                   513              
## ==============================================================================================================
## Total params: 3,453,121
## Trainable params: 3,453,121
## Non-trainable params: 0
## ______________________________________________________________________________________________________________
```


Let's have again a look at loss and accuracy during training, both measured on the training data and the validation data. 
…
Get the idea? Data augmentation stretches, moves, rotates, shears, and inverts your raw data images to produce new images, with the goal of never showing your model the same image twice during training.

Now let's put our new `train_datagen` function to work.


```{r eval = F}
model_data_augment = build_model(0, 0)
history_data_augment = compile_and_train(model_data_augment, 1e-3, 20, F)
```

```{r}

## Model: "convnet_L2_0_dropout_0"
## ________________________________________________________________________________
## Layer (type)                        Output Shape                    Param #     
## ================================================================================
## conv2d_12 (Conv2D)                  (None, 148, 148, 32)            896         
## ________________________________________________________________________________
## max_pooling2d_12 (MaxPooling2D)     (None, 74, 74, 32)              0           
## ________________________________________________________________________________
## conv2d_13 (Conv2D)                  (None, 72, 72, 64)              18496       
## ________________________________________________________________________________
## max_pooling2d_13 (MaxPooling2D)     (None, 36, 36, 64)              0           
## ________________________________________________________________________________
## conv2d_14 (Conv2D)                  (None, 34, 34, 128)             73856       
## ________________________________________________________________________________
## max_pooling2d_14 (MaxPooling2D)     (None, 17, 17, 128)             0           
## ________________________________________________________________________________
## dropout_9 (Dropout)                 (None, 17, 17, 128)             0           
## ________________________________________________________________________________
## conv2d_15 (Conv2D)                  (None, 15, 15, 128)             147584      
## ________________________________________________________________________________
## max_pooling2d_15 (MaxPooling2D)     (None, 7, 7, 128)               0           
## ________________________________________________________________________________
## flatten_3 (Flatten)                 (None, 6272)                    0           
## ________________________________________________________________________________
## dropout_10 (Dropout)                (None, 6272)                    0           
## ________________________________________________________________________________
## dense_6 (Dense)                     (None, 512)                     3211776     
## ________________________________________________________________________________
## dropout_11 (Dropout)                (None, 512)                     0           
## ________________________________________________________________________________
## dense_7 (Dense)                     (None, 1)                       513         
## ================================================================================
## Total params: 3,453,121
## Trainable params: 3,453,121
## Non-trainable params: 0
## ________________________________________________________________________________
```

Let's again plot the learning curves

```{r eval = F}
fig_size(8,8)
plot(history$augment) + theme_grey(base_size = 20)
```

![ ](./figures/output_55_1.png)
…
